models/TwoLayerNN.pth (torch, 37419 bytes, 3 tensors)

weight f4 [60, 120]
000000 ee f4 25 bd ac 02 10 bd a9 f3 3a bd e1 28 aa 3d
       -0.040516786 -0.035158798 -0.04564253 0.08308578
000010 59 37 68 3d f5 aa 18 3c 72 cd 44 bd 95 3b 85 3d
       0.05669341 0.009318103 -0.04804749 0.06505505
000020 ea d2 4e 3d 85 d3 d4 3d e1 f4 00 3d 21 06 e1 bd
       0.050494112 0.10391907 0.031483535 -0.10987497
000030 e4 e5 36 bd b9 41 b4 3c 14 2c 39 bd 3d 78 67 bd
       -0.044652835 0.022003995 -0.04520805 -0.056511153
000040 0d 7e b2 bd 4f 80 29 bd e0 7c 40 bd a8 1b 5c 3d
       -0.087154485 -0.04138213 -0.04699409 0.053737313
000050 46 74 8b 3c 0d 96 88 bd cd 00 0c bd c2 de d7 bc
       0.017023217 -0.06669245 -0.03418045 -0.026351336
000060 95 5f e9 bd 27 70 0b bc cd 46 06 bd ce 25 0e bd
       -0.11395184 -0.008510626 -0.032782365 -0.034704022
000070 18 63 28 3d 99 f8 b7 bd 7b 75 e9 3c 7a d5 9e 3b
       0.04111013 -0.08982963 0.028498402 0.0048472257
000080 5a 1e 10 bd 4f b4 45 3d e9 fb d6 bc a8 ac 71 bd
       -0.035185196 0.04826766 -0.026243167 -0.05900255
000090 32 38 35 bc e7 d1 eb bc b1 c3 e2 bb cc 8e a2 3d
       -0.011060761 -0.028786613 -0.006920301 0.079373926
0000a0 dc 22 dd bb dc d5 4d bd c2 3c 94 3d aa 5f 12 bd
       -0.0067485403 -0.05025278 0.07238151 -0.035735764
0000b0 99 82 90 bd fb a7 45 bd be 94 de 3d 7f 06 05 be
       -0.070561595 -0.0482559 0.10868214 -0.1299076
0000c0 2b d2 be bc ad 95 8a bd a1 8e d6 3c bf 32 5b bd
       -0.023293575 -0.0676683 0.026191058 -0.053515192
0000d0 07 17 2e be fa e4 83 3d fc b1 98 3c df 3a aa 3d
       -0.17000972 0.06440158 0.018639557 0.0831201
0000e0 b8 42 df bd cc 67 4f bd 88 86 90 bc 49 c1 ee bd
       -0.109013975 -0.050636098 -0.017642274 -0.1165796
0000f0 21 9a 24 3d 53 8e b3 3c da 7b 6e 3d d9 f3 94 3d
       0.04018605 0.021918451 0.058223583 0.07273073
000100 20 77 08 be 7a 7a 21 bd e5 9c 15 bd 3b 89 dc bd
       -0.13326693 -0.039423443 -0.03652658 -0.10768362
000110 06 6c 96 3b 4c 96 9b 3c 62 29 2f 3d f9 59 a2 bd
       0.004590514 0.018992566 0.042764075 -0.07927317
000120 5f c9 d8 bc 83 8b bd 3c c8 e8 6f 3d f7 7e d6 3d
       -0.026463209 0.023137813 0.058571607 0.10473435
000130 12 58 61 3d 1c 8d 1a ba 9e ce de 3b d4 74 47 bd
       0.05501563 -0.0005895661 0.006799533 -0.0486954
000140 e7 60 9d bb e9 8b 80 3c 34 79 ab 3d 80 2f 45 3c
       -0.0048028114 0.015691714 0.08372727 0.012035251
000150 63 8c 3b 3d 02 b1 b5 3c 74 2f ee 3c 4e 7a 9d 3d
       0.04578818 0.02217913 0.029075362 0.076893434
000160 57 98 05 3b f5 6c 3b bb 24 61 74 bd 79 63 1d 3d
       0.002038499 -0.002859888 -0.059662953 0.038424943
000170 32 3f 38 3d 4d bf e3 3d 4f ca 06 3c 82 9f ae bd
       0.044982143 0.11120472 0.008226945 -0.085265175
000180 7c b9 6e bd f6 53 ac bb d8 b7 b2 3d 2a 21 83 3b
       -0.05828236 -0.0052590324 0.08726472 0.004001756
000190 a2 04 32 be 10 7b d8 3c fc 87 c5 bc fd 83 2d 3d
       -0.1738458 0.026425868 -0.024112694 0.042362202
0001a0 d8 43 a3 bd 20 ad c9 bd 2f 14 b3 3d a2 2a 75 3d
       -0.079719245 -0.09847474 0.08744084 0.05985511
0001b0 02 f9 71 3d 50 0d 3f bc fc ea 00 3d 86 06 3a 3d
       0.059075363 -0.011660889 0.0314741 0.045416377
0001c0 a3 f6 b6 bc 15 2d 92 3d 0e b3 68 bd e6 d6 e2 3c
       -0.022334402 0.07137505 -0.056811385 0.027690362
0001d0 32 ca 06 bc 62 29 32 bd 8f ad 1e be b4 d4 ca 3b
       -0.008226918 -0.043496497 -0.15495895 0.006189907
0001e0 c9 ad f5 3c 2f 1a fd bc 1d 60 79 bb e5 2d 4f 3d
       0.029990094 -0.030896274 -0.0038051673 0.050580878
0001f0 ec 26 40 ba a2 00 35 bd 77 b8 0e 3d 55 66 2a bd
       -0.00073300186 -0.044190057 0.034843888 -0.041601498
000200 10 c0 84 3d 88 b1 c8 3c f3 d5 4d bd fc 7d 42 bd
       0.064819455 0.024498716 -0.050252866 -0.04748343
000210 14 10 e0 bd 9b c8 6b bd d6 f4 cd 3c 6f 4a ad bd
       -0.10940567 -0.05756436 0.025141161 -0.08461463
000220 e7 a6 9a bd 3e 53 5d bd db 76 6d bd 05 af bb 3d
       -0.07551365 -0.054034464 -0.057974678 0.09164242
000230 2c 02 2e bd fa 2b c5 bd a0 f1 9e 3c 2e 53 83 bd
       -0.04248254 -0.096275285 0.019402325 -0.0641235
000240 63 89 6a bc 48 08 57 bd c0 52 c1 3c 5b 5e f8 bc
       -0.014314982 -0.052498132 0.023599029 -0.03031843
000250 39 7e 65 3d 43 ae 79 3d 6a 3d 87 bd 7e 9a 8d bd
       0.05602858 0.060957205 -0.06603511 -0.06914233
000260 c2 1f 49 bd b1 5a 9a 3c 63 7d 30 3d 97 a2 92 bd
       -0.049102552 0.018842073 0.043088328 -0.07159918
000270 7a b9 b9 ba 92 7e 6c 3d a9 2d 06 bd fd 47 08 3d
       -0.0014169656 0.057737894 -0.03275839 0.03327178
000280 a1 48 4f 3d ca 78 ee bc 9e 09 ae bc a9 56 3f bb
       0.050606374 -0.029110331 -0.02124482 -0.002919594
000290 53 ab 89 bd 65 cd b7 bd 70 2d 41 bd c8 7f 0f be
       -0.067221306 -0.08974723 -0.047162473 -0.14013588
0002a0 65 4a 05 bd ad 6b dd 3d b2 ef 9a bc 50 40 9d bb
       -0.03254165 0.10811553 -0.018913124 -0.0047989264
0002b0 56 f7 4a 3d 49 ab 68 3d 1c 17 8a bd 61 c2 94 bd
       0.049552284 0.056803975 -0.06742689 -0.07263637
0002c0 6c 40 b0 3c da fb f4 bc ae 8b 85 bd 0d 99 59 3d
       0.021515094 -0.029905248 -0.065207824 0.053124476
0002d0 5a d9 f1 3d 0e f3 7b bd 6f b0 00 3d d7 b5 22 3d
       0.11809035 -0.061511092 0.03141826 0.039724197
0002e0 e1 76 f9 bd 7a f9 b5 3d 5a 0a de 3d bc f9 02 bd
       -0.121808775 0.088854745 0.10841818 -0.031976447
0002f0 64 50 7c bd ac f2 80 3c 05 5e 2f bd 64 f9 9c 3c
       -0.061600104 0.015740715 -0.042814273 0.019161887
000300 63 f1 ac 3d 71 47 80 bd 99 85 43 bd 5b 79 64 3a
       0.08444478 -0.06263626 -0.04773483 0.0008715593
000310 6f c8 f1 bd a3 e3 9c 3d 1a 14 60 bd 81 4e f4 bc
       -0.11805808 0.07660606 -0.05470667 -0.02982259
000320 73 eb 97 bd dc 26 f6 bd ef b1 8e bd 5d cc 7c bd
       -0.07417955 -0.120191306 -0.06967532 -0.061718334
000330 99 65 5e 3d a1 14 1a 3d 34 7f 87 3d 8d 67 a5 3d
       0.05429611 0.03761733 0.06616059 0.08076391
000340 f2 63 20 3d 53 31 cd bd 8a 60 2a bd e1 c0 bb bc
       0.039157815 -0.100191735 -0.041595973 -0.02291912
000350 7c c1 ca bd 23 0f 5c 3b 7d e7 36 bd 9e cc c4 bd
       -0.099001855 0.0033578358 -0.04465436 -0.0960934
000360 a1 4f d8 bc fb f8 b0 bd 62 16 8a 3c 0b 52 b7 bd
       -0.026405158 -0.08641239 0.016856376 -0.08951195
000370 ce 56 22 be 10 ef 91 bd 87 c8 96 3d 2a 3b b8 bc
       -0.15853426 -0.07125676 0.07362466 -0.02248915
000380 f4 cf 77 3d b5 5d 84 bd 87 ad 96 3d 1f 5b aa 3c
       0.060501054 -0.06463186 0.073573165 0.020795403
000390 45 cf 1d 3c 01 76 5e 3b a7 0b f2 3d 5d 59 cc bc
       0.009631936 0.0033944848 0.11818629 -0.024944955
0003a0 f9 a1 b3 bd 0a 6a 2b bd 8c ef 62 3d 4b 0b 08 bd
       -0.08771128 -0.041849174 0.05540423 -0.033213895
0003b0 52 eb fb 3b 1f cd c0 3d 82 98 a4 bd 1e 77 e0 bd
       0.0076879645 0.09414124 -0.08036901 -0.1096022
0003c0 25 9f 67 bc 6a 66 18 bc 65 c3 9a 3c d3 e7 10 bd
       -0.014137064 -0.009301761 0.018892 -0.035377335
0003d0 63 68 b6 bc 5a 23 f2 3d 0c 51 b9 bb 57 7f 88 bc
       -0.022266572 0.11823149 -0.0056554135 -0.016662283
0003e0 ed 8d a1 3c 59 be 95 bd cf b6 c8 3d b3 17 31 3d
       0.019720996 -0.073116966 0.09800493 0.043235492
0003f0 53 3e 4b bd 74 f8 16 3d dd b7 3c 3d b1 94 66 bb
       -0.049619984 0.036858037 0.046073783 -0.0035183842

bias f4 [60]
000000 db f4 2f 3d bb 0c 90 ba 20 c5 b9 3d df 0a 87 3d
       0.04295812 -0.0010990122 0.09070802 0.0659387
000010 79 c0 89 3d 68 5a 18 be 9f ee df bc ef 93 49 3d
       0.06726164 -0.14878237 -0.027335463 0.049213346
000020 b0 6e 78 3d dc f0 08 bd f6 81 83 3d 51 4b 8f 3d
       0.060652435 -0.033432826 0.064212725 0.06996787
000030 09 08 34 3e a7 5e 48 bd a8 93 d4 3d 63 b1 3e 3c
       0.1758119 -0.048918393 0.10379726 0.011638972
000040 fc e2 1b 3c 54 ca f6 3c 34 00 33 3d bc 0a 7d 3d
       0.0095145665 0.030125774 0.043701366 0.061777815
000050 f2 22 05 3c ff 50 33 3d 04 e5 76 bd 4f 9b 3b 3d
       0.008126007 0.043778416 -0.060277 0.04580241
000060 a2 14 1d bd f3 15 42 ba be 17 d6 3c b8 34 7f 3d
       -0.038349755 -0.00074037834 0.026134368 0.062306136
000070 84 4c e8 3d 20 46 9a 3d 69 aa e3 3d 2e c9 8f bc
       0.11342719 0.075329065 0.111164875 -0.017551985
000080 34 cf ae 3d 14 30 08 3e 02 05 df 3c 66 a7 de 3d
       0.085356146 0.1329959 0.027224068 0.108717725
000090 84 b2 4f bd a5 40 86 3d b7 ca 5a bc 4c 98 a6 3c
       -0.050707355 0.06555299 -0.013353995 0.020336293
0000a0 28 f3 86 3d 57 aa 9b bd 1a b2 93 3c 09 b8 f2 3c
       0.06589347 -0.07600849 0.018029261 0.02962877
0000b0 f1 a0 68 bc f9 bb 87 3c 2d 04 18 bd eb f5 be 3c
       -0.014198528 0.016569125 -0.037113357 0.023310622
0000c0 43 3e f3 3b 80 2f cd 3d 6e 99 53 bd fc da e2 3d
       0.0074231937 0.100188255 -0.051659994 0.11076924
0000d0 9b ca 5f 3d c6 b5 5c 3d 2f d9 3e bd 49 c0 c0 bc
       0.05463658 0.05388429 -0.04659384 -0.023529189
0000e0 07 7e 09 bc e9 7a a5 3d a4 13 90 bc 10 08 ef 3c
       -0.008391864 0.08080084 -0.01758749 0.02917865

weight f4 [1, 60]
000000 53 e7 bd bd 87 2a de bd ba 01 8a 3d e3 11 e2 3d
       -0.09272637 -0.10847955 0.067386106 0.11038568
000010 6a af 0f be 6a 02 8a 3d 1b 1c ec bd 14 f2 f9 3d
       -0.14031759 0.06738742 -0.11528798 0.12204376
000020 cb e2 0d be a0 69 8d 3d d3 bc a9 3d 81 74 53 bd
       -0.13856046 0.06904912 0.082879685 -0.05162478
000030 fe 8f 92 3d 6f 71 95 3d 72 3a ba bd 40 29 fb bd
       0.071563706 0.07297026 -0.09093179 -0.12263727
000040 7f c1 bb 3d 59 ac 07 be 72 20 fe 3d 16 55 08 be
       0.09167766 -0.13249339 0.12408532 -0.13313708
000050 ed 79 6e 3d 9c 47 bd bd 01 f8 c1 3d 2d ef 79 3d
       0.058221746 -0.09242174 0.09471131 0.06101911
000060 f3 84 23 be 78 94 b2 bd f1 27 b5 3d b1 7b 1f 3d
       -0.15968685 -0.087197244 0.08845509 0.03893632
000070 19 4f c3 3d b4 77 8b 3d 81 d4 1a be 0c 9d 0f 3e
       0.09536571 0.06809941 -0.15120126 0.14024752
000080 e4 ac 20 3e 22 04 d9 bd e3 a6 b3 3d 1d 8d 34 3d
       0.15690953 -0.105964914 0.087720655 0.04407989
000090 87 f3 3b 3d 0a 95 a2 3d 58 51 98 bd 3e 03 96 3d
       0.045886543 0.07938583 -0.0743739 0.07324837
0000a0 9a cb e0 3d 2a e7 b4 3d 0a cd 99 3d 55 75 02 bc
       0.10976334 0.088331535 0.07509811 -0.007962544
0000b0 b5 02 6b bd 38 c0 0d 3d d2 30 8f 3d bd bb eb 3d
       -0.05737563 0.034607142 0.069917336 0.115104176
0000c0 d7 63 11 be a2 42 b6 bd 9d d7 f6 bd 6f 12 01 3e
       -0.14198242 -0.08899428 -0.12052844 0.12604688
0000d0 e6 75 bc bd 68 1b cc 3d 9a 46 10 3e 89 8b 6d bd
       -0.09202175 0.09966165 0.14089432 -0.0579944
0000e0 23 f1 e8 bd f8 13 c4 3c c8 e2 b7 3d 3a e9 9d 3d
       -0.11374118 0.023935303 0.08978802 0.077105
