models/TwoLayerNN.pth (torch, 37419 bytes, 3 tensors)

weight f4 [60, 120]
000000 a8 89 f9 bb 5a ce 9f bd 12 25 4d 3d c2 5d 93 3d
       -0.007615287 -0.0780303 0.05008418 0.07195617
000010 81 ae 43 bd a3 41 23 bd 6c 29 cd bc cf 75 62 bd
       -0.04777384 -0.039857518 -0.025044166 -0.055288132
000020 95 a5 ed bc 07 95 fe bd 77 a6 17 bd f4 ec 18 bd
       -0.02900962 -0.124307685 -0.037023988 -0.03733535
000030 b3 d1 fe bc 86 73 51 bd bf d1 4f bd 3e 2a b1 3d
       -0.031105852 -0.051135562 -0.05073714 0.08650635
000040 85 45 b0 bc b0 bb 99 3d c4 f2 ac 3d 0f 33 a7 bd
       -0.021517524 0.07506502 0.08444741 -0.081640355
000050 8b 19 64 3d c9 ae 24 3d 12 1b 24 bd 94 fe 56 bd
       0.055688422 0.04020575 -0.04006488 -0.05248888
000060 55 bc 9b 3c 96 ce 1b 3a 65 33 db bc da 72 06 bd
       0.019010702 0.00059435645 -0.026757905 -0.032824375
000070 d9 45 b8 3d 47 0c d5 3c d1 a1 96 3c 9a 00 0e bc
       0.089976974 0.02600683 0.018387707 -0.008667136
000080 c7 b1 24 3c 8b 60 db bc fd 77 10 bd 05 3d c9 3d
       0.010052151 -0.026779434 -0.03527068 0.09826092
000090 80 e6 d7 3d 55 ab 87 bd cd 2a 1d bd 21 38 88 3c
       0.10542011 -0.06624476 -0.038370896 0.016628327
0000a0 d4 88 6f 3d 2f a6 25 bd b7 33 3e bc af 25 4a 3c
       0.0584801 -0.04044169 -0.0116090095 0.012338086
0000b0 75 12 04 bd e6 4a 90 3d 16 9a bb 3d 24 56 c7 bb
       -0.032244164 0.07045536 0.09160249 -0.006083267
0000c0 34 e3 f1 3d 9a 41 a3 3c 53 d5 a4 3c eb 25 46 3d
       0.11810914 0.019928742 0.020121252 0.048376005
0000d0 22 40 e4 3d 4f 3a a1 3d 02 4a ce bc 4c 96 8d 3d
       0.11145045 0.078724496 -0.025181774 0.069134325
0000e0 f0 ea 25 bc 67 6d b9 3d 84 30 83 bd 85 ed 0e bd
       -0.010126814 0.0905407 -0.06405738 -0.034894485
0000f0 7f b7 cd bb 71 46 24 bc ec 46 67 bc 11 7c a6 bc
       -0.006277978 -0.01002656 -0.01411603 -0.020322831
000100 ff 8e d5 3d c2 7d 6f 3d c5 6e 68 3d be e1 cc 3d
       0.10427665 0.05846954 0.056746263 0.100039944
000110 93 2c 09 3e fb ec b9 bd f3 e2 5d bd d7 0d 83 3d
       0.1339591 -0.090784036 -0.054171514 0.06399124
000120 d0 78 59 bc 36 9b b0 3c c1 fd b5 3d 44 35 97 3d
       -0.013273433 0.021558385 0.0888629 0.073832065
000130 8d fc bd 3b 10 5a 7e 3d aa 06 c5 3d 5e 42 82 3d
       0.0057979287 0.06209761 0.09620412 0.06360315
000140 e1 5a 43 3d ab 20 dc 3d 39 75 99 bd 6b c6 58 3c
       0.04769409 0.107484184 -0.074930616 0.0132309
000150 e0 16 8d bd dd b2 97 bc b0 57 bf bd 78 d2 8f 3c
       -0.06889129 -0.018517906 -0.09342897 0.017556414
000160 2b 56 9b bd 1d 53 a3 bd 40 80 15 bd 6e 9f 9a 3d
       -0.075847946 -0.07974837 -0.03649926 0.0754994
000170 43 cc 40 bd 9f 0b 04 3d 4c 6c 9c 3d e4 49 a5 bd
       -0.0470698 0.032237645 0.076378435 -0.08070734
000180 37 da 58 bd 22 aa 0a 3d aa 3b 01 bd 27 f9 96 bd
       -0.05294248 0.033853658 -0.03155104 -0.07371741
000190 ea 23 d7 3d ed fa a2 3d 5d c3 8b bd 07 f6 b7 bd
       0.10504897 0.079580165 -0.06824372 -0.08982473
0001a0 9e cc 90 bd 4e 32 b5 3c eb 10 c2 3c 3a 03 d7 3d
       -0.07070278 0.022118714 0.023689708 0.10498662
0001b0 89 0c 69 3c 3b 1d 7b 3d 51 fa 58 3d 82 10 56 bc
       0.01422418 0.061307173 0.052973095 -0.013065459
0001c0 a1 c6 c3 3d fe bd af 3c 6e 50 94 3d fb 52 7e bc
       0.0955937 0.0214529 0.07241903 -0.015522714
0001d0 7b 38 7d 3c 58 4d 63 bd 73 d6 50 bb a6 aa db 3d
       0.0154553605 -0.055493683 -0.0031866103 0.10725908
0001e0 68 8a 0d 3d 8c 78 80 3d 78 6d 9d bc 48 8f 0c 3c
       0.034555823 0.062729925 -0.019217238 0.008579083
0001f0 e3 3e 55 bc 80 50 67 bd 92 e8 6f bd 90 d3 df ba
       -0.013015482 -0.056473255 -0.058571406 -0.00170766
000200 0f bb ad 3d 3c 13 c0 3c 4c ab d1 bd 53 66 e9 bc
       0.08482944 0.023446672 -0.102377504 -0.028491175
000210 4e 6a 9c bd 34 16 2d 3d 1a d7 b7 bd ac 8c 04 3d
       -0.076374635 0.042257503 -0.08976574 0.032360718
000220 bd ab 4c ba ec b1 12 3c 3d 6b 7b bb c5 f7 e6 3c
       -0.00078075734 0.008953553 -0.003836348 0.028194318
000230 67 3b c8 bc 7e 9c ef bc a1 3a 8d bd 4b bc ea 3c
       -0.024442388 -0.029249426 -0.06895948 0.028654238
000240 fa db a1 bd de 9f 9e bd 11 bc 56 bd ec 94 f2 bc
       -0.07903285 -0.07745336 -0.052425448 -0.029612027
000250 ee f8 48 bd 2c 3e c0 3d d0 4f 0f bd f1 62 19 bb
       -0.049065523 0.09386858 -0.034988225 -0.002340492
000260 9c f3 7e bd 00 f6 17 3c 33 e3 e0 bc 55 b8 cf bd
       -0.062244043 0.00927496 -0.027452087 -0.101425804
000270 52 03 2d bd c5 7f 42 bd 4d fb e6 3c 71 fa d3 3d
       -0.042239495 -0.04748513 0.028196001 0.10350502
000280 dd 42 a1 3c be 9d 50 bc ee 8a 20 3c 98 a8 9b bc
       0.019685203 -0.012732921 0.009798748 -0.01900129
000290 8d 69 8a bd 62 1c f5 bc 8e 2f 4c 3d a3 d4 22 3d
       -0.067584135 -0.02992076 0.04985004 0.039753567
0002a0 50 68 b0 bc 78 38 d5 bc 10 8d 50 3d d8 2c c6 3d
       -0.021534115 -0.026027903 0.050915778 0.09676522
0002b0 3c 9a 93 3c f2 b0 4b 3d 7e 7b ab 3c a8 21 81 bc
       0.01801788 0.049729295 0.02093291 -0.015763119
0002c0 0d 62 f5 3c 25 dc b0 bd a7 88 95 bd 3d e4 6b 3d
       0.02995398 -0.08635739 -0.07301455 0.05759071
0002d0 7a 23 62 3d a0 5c 04 bd 82 5e b8 3c b2 6f a6 3d
       0.055209614 -0.032314897 0.022506002 0.08126773
0002e0 e2 3a 4c bd 45 cc a8 3d 64 b3 97 bc ef 2e 5a 3a
       -0.049860843 0.08242086 -0.018518157 0.00083230337
0002f0 c9 fd 2a bc 7b b3 8a 3d af de 9a bd fe 4e e1 3c
       -0.010436484 0.067725144 -0.07562005 0.027503487
000300 bc 67 8c bd 7f dc ac 3c 4e d9 25 bc f5 27 99 3d
       -0.06855723 0.021101234 -0.01012261 0.07478324
000310 8f a0 c4 bc 8d f3 80 3b 86 ea c6 bd 56 9f 17 bd
       -0.024002342 0.0039352835 -0.097127005 -0.03701719
000320 c8 71 2e bd 9d 96 90 bc b3 68 b0 3d 37 a8 c3 bc
       -0.04258898 -0.017649943 0.0861372 -0.023883922
000330 db 50 8c bd 4c 81 c4 bc 86 98 a7 3d 80 28 32 b9
       -0.068513595 -0.023987435 0.081833884 -0.0001699049
000340 12 6b 9e bd b8 f9 df 3c 0f 87 bf 3c 5d a7 19 3c
       -0.07735266 0.027340755 0.02337983 0.009378281
000350 50 ae 82 bd 77 78 19 bd df 0c 31 bc 00 47 e0 bc
       -0.06380904 -0.0374684 -0.010806291 -0.027377605
000360 2a 20 74 bd fe bf e8 bc f5 03 a4 3d 5a 51 b0 bd
       -0.059600987 -0.028411862 0.08008567 -0.086092666
000370 32 d3 84 bc 5b 1b 91 3d 1a 62 60 bc 18 a4 50 3d
       -0.016213987 0.07085296 -0.013695264 0.050937742
000380 9f fd ca 3d 45 05 d7 bd a5 72 b1 3b d6 b2 59 3d
       0.09911656 -0.10499052 0.005415278 0.053149067
000390 b7 a3 78 3d df 4c 01 3d a2 b8 3a bd 18 a9 ef bd
       0.060703006 0.03156745 -0.045586236 -0.11702174
0003a0 7f da f1 bd ea b8 59 bd 70 df a0 3b e6 62 8d 3c
       -0.11809253 -0.053154863 0.0049094483 0.017259073
0003b0 9f e1 93 bc 51 03 7e bc 34 81 af bd 02 2e ae bd
       -0.01805192 -0.01550372 -0.085695654 -0.08504869
0003c0 53 31 39 bd 1a 9c 40 3d 5f 39 1e 3d 42 ba 0b 3c
       -0.045213055 0.04702387 0.038628932 0.008528294
0003d0 66 fa 6d bd 13 d0 a0 bc c8 62 20 3d a7 a9 80 3d
       -0.058100127 -0.019630468 0.039156705 0.062823586
0003e0 ef 56 82 3d 19 6d ca 3a b0 92 7c bc a4 2d 7c bd
       0.063642375 0.0015443891 -0.015415832 -0.061566964
0003f0 33 7c 8e bb 38 54 00 3c 2e 9e 39 3b 7a ed 53 3d
       -0.004348302 0.007832579 0.0028323042 0.051740147

bias f4 [60]
000000 be 00 3b 3d 7c 01 38 bc 3d 3a 86 bd 46 df 83 bd
       0.045655005 -0.011230823 -0.06554077 -0.064390704
000010 c4 f5 59 3c 7a 9e ef 3c c0 f6 09 3b 1e de 1f 3d
       0.013303224 0.029250372 0.0021051615 0.039030187
000020 94 f0 8a 3d 85 35 5e 3a 76 29 e2 3c 51 76 8a 3d
       0.06784168 0.0008476603 0.02760766 0.06760848
000030 d4 a7 9e bc d9 17 c6 3d dd 5a c9 3d de 41 8d bc
       -0.019367136 0.09672517 0.09831784 -0.017243322
000040 f0 15 29 bd 7c 52 82 3d 0a 47 00 3e bf 24 6f 3d
       -0.041280687 0.06363389 0.12527099 0.058384653
000050 35 32 8b 3d 64 46 88 3d 87 de 51 3d 75 69 8d 3d
       0.067966856 0.06654051 0.05123761 0.0690488
000060 56 a4 8e 3d cd ab 42 bd 03 34 d5 bc 89 42 df 3d
       0.06964938 -0.047527123 -0.026025778 0.109013624
000070 70 34 d5 3d c4 58 ce 3c 31 d4 24 3d 7f 0d 25 3d
       0.10410392 0.025188811 0.040241424 0.040296074
000080 0a fc 9d 3c 42 9a 4e 3d 96 04 d2 bd 50 bf 74 3d
       0.01928522 0.05044008 -0.10254781 0.059752762
000090 34 25 34 3c 92 4d 1b bd fe c9 bf 3d 0e 69 3f bd
       0.010995198 -0.037915774 0.09364699 -0.046731047
0000a0 d1 b6 73 3c d2 5b 96 3d 65 ad 1c bd 6c 5b d1 3d
       0.01487513 0.07341732 -0.0382513 0.102225155
0000b0 79 e4 d6 3d fa 37 9d bc b6 40 22 3d b1 67 a3 3d
       0.104927965 -0.01919173 0.039612494 0.07978762
0000c0 1a 47 db 3d cc ea 3e 3d 57 ac 89 3d 0e a4 5a 3d
       0.10706921 0.04661064 0.06722324 0.05337911
0000d0 9f d9 be 3c 0e c4 1f 3d c5 b1 3f bd 25 f8 d5 bc
       0.02329713 0.03900533 -0.046800394 -0.026119301
0000e0 50 53 d7 3d 95 1c d3 3c ce 73 03 bd 94 3f 17 bd
       0.105139375 0.025770465 -0.03209286 -0.036925867

weight f4 [1, 60]
000000 d4 b5 af 3d 69 34 2b be 8d 2f 92 3d e1 34 77 3d
       0.08579603 -0.16719212 0.07137976 0.060353164
000010 e8 f4 0e be 28 c5 d5 bd 26 40 4c 3b 47 4a 05 3e
       -0.13960612 -0.10437995 0.0031166165 0.13016616
000020 9a f5 fb 3d c0 55 0f 3e b0 ea f5 3d 89 cc 15 be
       0.12302704 0.13997555 0.12007654 -0.14628805
000030 1e 4f 13 3e 90 88 da bd ff 04 91 bd 6a 1a de bd
       0.1438565 -0.106705785 -0.07081031 -0.10844882
000040 eb 55 a0 bd 65 1a 14 3e 0c 68 5c bd 90 5c 76 bd
       -0.078288876 0.14463194 -0.053810164 -0.06014687
000050 89 80 ee 3d 48 9f 49 bd 7c 1e 12 3e ee 28 7d 3d
       0.1164561 -0.049224168 0.14269441 0.06180661
000060 93 dd 89 bd 0b 0e 03 be 94 b6 04 be ab 4b cf 3d
       -0.06731715 -0.12798326 -0.12960273 0.101218544
000070 e0 94 c2 3d dc d3 c7 3d 2e 9a fe bd 48 3a d6 bd
       0.09501052 0.09757206 -0.12431751 -0.10460335
000080 75 33 54 3d 1b 79 1c 3e 9a d8 b7 bd be ef d0 bd
       0.051806886 0.15280573 -0.0897686 -0.10201977
000090 50 1a e3 3d 28 b2 0e be 8d 5d ba bd b0 cd d5 bd
       0.11089003 -0.13935149 -0.09099875 -0.104396224
0000a0 8c bf 89 bd bf cd a9 3d 3d bf 0f 3e db 4a 6b 3d
       -0.06725988 0.08291196 0.14037795 0.057444435
0000b0 46 67 9d bd 73 0c bb 3d f0 e3 1e 3d d4 3a f7 bd
       -0.076857135 0.09133234 0.038791597 -0.120717674
0000c0 14 eb 92 3d 06 5a 80 bd 45 4d 21 3e 45 7a f9 3d
       0.07173744 -0.062671706 0.15752132 0.12181524
0000d0 24 4b 1f 3d 16 aa 8e 3d dd d5 cf 3c 01 8c 15 3e
       0.03889002 0.06966035 0.025370533 0.14604189
0000e0 af e0 89 3d 4e 4c 8c 3d 38 8f 0a be 54 cd d5 bd
       0.06732308 0.068504915 -0.13531196 -0.10439554
